match_predictor.pt (torch, 45613 bytes, 3 tensors)

fc1.weight f4 [128, 82]
000000 fa 80 5c 3d 40 82 11 bd 2f b8 d9 3d 9e e3 7f bd
       0.05383394 -0.035524607 0.10630833 -0.062472932
000010 6c 29 a3 3b ca 75 53 3d 18 a2 80 bd 8b 31 1d bc
       0.004979303 0.051626004 -0.06280917 -0.0095943315
000020 a0 dd 90 bd 0a c3 94 3d 4d 4c 12 bd d4 77 c9 3c
       -0.070735216 0.07263763 -0.035717297 0.024593271
000030 33 57 9a 3c 77 07 d7 3d 4c 04 0e bd 15 6e 89 3d
       0.018840408 0.10499471 -0.034672067 0.067104496
000040 fa 74 d1 bd 08 7b 91 bc ff 1a ac bd 35 9a b5 3a
       -0.1022739 -0.017758861 -0.084035866 0.0013855161
000050 d7 6b 5b 3c b3 52 57 3d 7f 0e e1 3c 45 72 b9 3c
       0.01339241 0.052569102 0.027472733 0.022637496
000060 a1 27 5b 3d 76 fb 5f bd c3 a4 c0 bd 5b 15 0e bb
       0.05350459 -0.05468317 -0.09406426 -0.002168021
000070 f1 42 6e 3d db 95 e3 bc a0 ea f8 bc 62 2d a8 3d
       0.05816931 -0.027781418 -0.030385315 0.08211781
000080 41 16 39 3d dc fc 24 bd d7 51 db 3c 97 87 e2 bd
       0.04518724 -0.040280208 0.026772423 -0.11061018
000090 8e f9 24 bd 26 57 18 3c db 46 be bc ae da e9 bd
       -0.040277056 0.009298122 -0.023227146 -0.11418663
0000a0 21 68 89 bd 30 bf 89 bc 9b 74 25 bd 0c a3 64 bd
       -0.06709314 -0.016814798 -0.040394407 -0.055819556
0000b0 f8 0a 0b bd 02 d1 c6 3d a7 52 ca bd f4 8d ca bd
       -0.033946007 0.09707834 -0.09879046 -0.09890357
0000c0 78 17 2b bd 7c 33 53 3d 89 a8 ad 3d e4 b9 d8 3b
       -0.04177043 0.05156277 0.08479411 0.0066139568
0000d0 8a 8e 3a bd 47 08 98 bd 66 82 99 3d 00 ac f7 38
       -0.045546092 -0.07423454 0.07495575 0.00011809915
0000e0 aa b7 f5 bc c3 af cb bd 3a 45 bb bd 98 6c 8f bd
       -0.029994804 -0.09945633 -0.09144063 -0.070031345
0000f0 28 10 e4 bd c2 86 81 3d d7 5b 95 3d c0 73 11 3c
       -0.11135894 0.06324531 0.07292908 0.008877695
000100 b2 fd ac bd 56 a7 8b 3d 2a b1 d4 3c 75 c2 17 bd
       -0.08446826 0.06819026 0.025963385 -0.037050683
000110 87 68 06 bd 91 e7 a1 bd fb 9a a8 bd 1e 28 f8 bd
       -0.03281453 -0.07905496 -0.08232685 -0.12117027
000120 f4 3b bb 3d ed d9 82 3d 95 5d 5e 3c 6b 95 b0 3c
       0.091422945 0.06389222 0.013572116 0.021555623
000130 10 86 a3 3d 59 ec 62 bd 5f c9 80 bd e9 05 f4 bd
       0.07984555 -0.05540118 -0.062884085 -0.1191519
000140 bf b9 90 bd ee c0 60 3d 96 f3 5a 3d 9a 80 9e 3c
       -0.07066678 0.054871492 0.053454958 0.019348431
000150 c7 0a 4f 3d d1 91 37 bd fc c4 f0 3d a3 42 eb 3d
       0.050547387 -0.044816796 0.11756322 0.11487319
000160 70 35 ce bb e9 55 d2 3d 56 46 37 bc 28 fb 54 bd
       -0.0062929913 0.10270292 -0.011186203 -0.051997334
000170 8b e5 b5 3d b7 4a 2c 3d e8 b9 b3 bd 3c cf 1f bd
       0.088816725 0.04206344 -0.08775693 -0.039015993
000180 0d bf a9 3d 5b 9a f2 3d 60 03 b1 3d e1 72 e0 3c
       0.08288393 0.11845847 0.08643222 0.027398529
000190 76 cb fd 3d 81 49 f8 bd bd 6f 2f 3d 23 5b bf bb
       0.12392323 -0.12123395 0.04283117 -0.0058397218
0001a0 a0 06 63 3b cc 8c 10 3e c3 91 a7 3c 19 a6 8a 3d
       0.00346414 0.1411621 0.020455247 0.06769962
0001b0 d6 03 8f bb c6 a8 a4 bd 57 9a 10 be 38 c0 cd 3d
       -0.004364471 -0.080400035 -0.14121376 0.100464284
0001c0 75 62 5e 3d 6e 48 0d 3d 41 1a 8a 3d 49 40 aa bd
       0.054293115 0.034492902 0.06743289 -0.08313043
0001d0 85 48 cb bc 77 17 07 3e 26 26 42 3d 4f 98 0c bc
       -0.024814853 0.13192545 0.047399662 -0.008581235
0001e0 a9 46 b5 3d fe 70 8b 3c 83 6f f7 bc 93 3c 9b bc
       0.08851368 0.017021652 -0.03020454 -0.018949782
0001f0 8f c3 01 3d 7d e3 95 bd 8a 54 10 be 96 c8 e7 3d
       0.03168064 -0.073187806 -0.14094749 0.113175556
000200 6b d9 5c 3d 42 26 9b bd 12 57 6e 3d b2 53 60 bd
       0.053918283 -0.075756565 0.058188505 -0.054767318
000210 d8 7a b4 bd cd 23 a5 bd f7 ee b8 3d a9 f7 d8 3d
       -0.08812493 -0.08063469 0.09029954 0.105941124
000220 17 e1 99 bd 31 cc 5c 3d 31 03 15 3d c6 51 fd bd
       -0.075136356 0.05390567 0.036379997 -0.12369113
000230 cd aa fa 3d df 30 b6 3d 5d d1 02 3e 4e d9 b0 3c
       0.12239609 0.0889604 0.12775178 0.021587994
000240 7d 3b 9d bd 97 aa d0 3d 04 b2 74 bd a9 79 c2 3d
       -0.07677362 0.101887874 -0.05974008 0.09495861
000250 c7 ee a8 3d 05 0e de 3d 97 0b a8 bd 54 17 03 3e
       0.08248668 0.10842518 -0.082053356 0.12801868
000260 6c 11 e4 3d d1 71 b5 3d 15 94 95 3c 86 30 a3 3c
       0.111361355 0.088595994 0.018259088 0.019920599
000270 4d 6a 76 bd 86 c0 68 bd 12 33 9d 3b 7a fa 47 3d
       -0.06015997 -0.05682423 0.004797348 0.048822857
000280 49 fa b1 bd aa d3 94 bd 02 17 fe 3d 2a 6b 19 3c
       -0.08690316 -0.07266934 0.12406732 0.009363929
000290 28 bb 85 bd 2e 43 9e bd 02 22 2e 3d 3d 02 67 3d
       -0.06529838 -0.07727657 0.0425129 0.05639862
0002a0 b0 f1 c3 3d 07 8d 2f 3d 9a ba e7 3d 41 0b 0a 3d
       0.095675826 0.042859104 0.11314888 0.03370214
0002b0 aa df 09 bd 72 4f 92 bc 47 20 4e 3d 37 f2 1f 3e
       -0.03366057 -0.017860148 0.05032375 0.15619741
0002c0 e3 1d 0e 3e 43 1e f9 3d f6 f9 a4 bd 9a 47 6d bd
       0.13878588 0.12163975 -0.08055489 -0.057929613
0002d0 54 31 bf bb c4 a9 16 3e 30 88 69 3c ad 17 f3 bc
       -0.005834738 0.14713198 0.014253661 -0.029674375
0002e0 65 95 10 3e 0e 03 da bc e3 86 d0 3d 98 d8 56 bd
       0.1411949 -0.026612785 0.101819776 -0.052452654
0002f0 aa d1 42 3b 17 2c 95 bd d4 a0 1e be 5d 88 42 3e
       0.002972702 -0.072838 -0.15491039 0.18997331
000300 5d 97 e7 bc 9c 67 58 3c 90 78 c7 3c 37 5e 12 bd
       -0.028270418 0.013208296 0.02434948 -0.03573438
000310 2e 5f 21 3e 9b 00 8c 3b b0 cc 8c bd 8d 27 22 bd
       0.15758964 0.004272533 -0.068749785 -0.0395885
000320 dc 93 c8 3d 78 6d d6 bc f8 ac a5 bd 9e c1 06 bd
       0.09793827 -0.026175246 -0.08089632 -0.03289949
000330 5b 26 4c 3d 2f 25 04 be c0 b6 30 bd 57 3b cf 3d
       0.049841266 -0.1290481 -0.043143034 0.1011874
000340 af 7e a3 3d 6c 34 e3 bd 0e ac e0 bd 84 c7 5a bc
       0.07983147 -0.11093983 -0.10970317 -0.013353232
000350 7e 50 dd bd ef 7c 9d bd 01 d7 dd bd 52 5d db bd
       -0.10806368 -0.07689845 -0.10832024 -0.10711159
000360 88 7e 18 3d 0f 13 bc bd 1c 14 43 bc 87 51 da bd
       0.037230045 -0.09183323 -0.01190665 -0.10660081
000370 bb a5 97 3d 1a ac 10 3c 2d f5 b4 bd 6a 13 23 bc
       0.074046575 0.008830095 -0.08835826 -0.009953359
000380 c0 f2 e1 bd a0 e5 04 3e 7e bc 7f bd 68 aa ed bd
       -0.11032629 0.1297822 -0.06243562 -0.11604768
000390 b8 57 cf 3c 1d 02 09 bc dc d4 16 bd 26 f1 13 3d
       0.025310382 -0.00836232 -0.036824092 0.03611865
0003a0 b7 b0 2e bc 27 fc b0 3d b8 62 03 be 66 f9 1e be
       -0.010662249 0.08641844 -0.12830627 -0.15524825
0003b0 79 6d ee bb 56 04 a5 39 65 61 c8 3d 38 c3 d1 3c
       -0.0072762338 0.00031474483 0.097842015 0.025605783
0003c0 11 46 05 be b3 c9 8c bd dd 75 b9 3c e5 00 6f 3d
       -0.1301501 -0.068744086 0.02263921 0.058350462
0003d0 9b c7 34 bd ce 87 eb 3d d0 e1 07 3d ce 89 9d 3d
       -0.04413567 0.11500512 0.033174336 0.076923
0003e0 44 10 e2 3c e4 43 88 3d 0e 40 ee 3d ac 61 a4 3d
       0.027595647 0.06653574 0.11633311 0.08026442
0003f0 36 e5 39 3d a8 74 91 3d 0d d1 d0 3d c8 bb 66 3d
       0.04538461 0.071023285 0.10196123 0.056331426

fc1.bias f4 [128]
000000 76 54 e3 bd 19 62 cb bc ad 72 1e 3d a0 36 cb 3d
       -0.11100094 -0.02482705 0.038683582 0.09922528
000010 12 6a 0e ba ba 12 66 bd db 5d 1b 3d 44 3b ab 3c
       -0.0005432676 -0.056170203 0.037931304 0.020902283
000020 bb 68 a5 3c 07 d1 f7 3d d2 ab b7 3d f9 42 05 3d
       0.020191541 0.12100416 0.08968319 0.032534573
000030 86 cc b0 bd 6f 05 b4 bd a1 0c cf 3d 88 76 e8 bc
       -0.0863276 -0.08790099 0.10109831 -0.028376833
000040 5e 90 cc 3c ae 51 2d bd 3e 4b 6f bc 77 b2 04 3d
       0.024971183 -0.042314224 -0.0146053415 0.03239676
000050 9f bc ad bd 20 23 a5 bc a7 69 82 bd d2 4c de bc
       -0.08483242 -0.02015835 -0.06367808 -0.02713624
000060 9d 9e 6f bd 08 03 ec 3d 4d 7a a8 bd 17 78 ec bc
       -0.058500875 0.11524016 -0.08226452 -0.028865857
000070 c9 91 c2 3b 56 ad 0b 3e 38 ca 64 bd c8 8f f7 3d
       0.005937789 0.13640341 -0.055856913 0.12087971
000080 8d c7 ce 3d 22 fa 2f 3c 92 fa 9c bb a9 46 c8 bd
       0.10096655 0.010740789 -0.0047906125 -0.09779102
000090 01 8c 8a bd 85 a5 0b 3c fa a5 60 bd da 0c fb bd
       -0.06764985 0.00852335 -0.054845788 -0.122583106
0000a0 16 2a 23 3d 43 02 3c bd 7d 22 d2 bd b7 8f 2b 3c
       0.03983506 -0.045900594 -0.10260484 0.010471276
0000b0 71 64 85 bc 85 77 bf 3d 89 e4 16 3d e2 2f 0f 3c
       -0.016283246 0.093489684 0.03683904 0.0087394435
0000c0 c1 72 06 3d d3 aa 80 bd b9 6d 1c 3e 6b a7 a2 3c
       0.03282428 -0.06282582 0.15276231 0.019855222
0000d0 fc 64 17 bd cd 8c e9 bc 27 e5 9d 3d 8f 05 ee bb
       -0.03696154 -0.028509522 0.07709723 -0.007263846
0000e0 63 0e 42 bd a0 05 49 bc ac 30 a9 3d ba b0 46 bd
       -0.047377 -0.0122694075 0.082612365 -0.048508383
0000f0 9a 3e 95 bc ac 72 a9 3c d8 11 18 3d 52 9f d5 3d
       -0.018218327 0.020684563 0.037126392 0.104307786
000100 06 f9 55 bb da da 86 3c 5c 79 06 3c f3 40 7b 3d
       -0.003264965 0.016461778 0.008207645 0.061341237
000110 58 40 87 bc 5c 5d e2 3d 18 56 bc bd 80 76 54 3c
       -0.016510174 0.11052963 -0.091961086 0.012967706
000120 fd 82 f4 3d 52 9f 91 bc 31 19 1d 3d c6 46 ab 3d
       0.119390465 -0.017776165 0.038354103 0.08363108
000130 38 71 b1 bc 1a bd cf 3b b0 4e 85 bd 4b 42 95 bd
       -0.021660432 0.0063396813 -0.06509149 -0.07288035
000140 4e 0a 9b 3d 75 e3 62 3d 5c dc 8d bd f4 6b b2 bc
       0.07570325 0.0553927 -0.06926796 -0.021779992
000150 c3 9b 2e 3d 02 5b 82 3d 31 15 85 bc 4c 51 d0 3c
       0.042629015 0.063650146 -0.016245456 0.02542939
000160 46 ce 30 3d 51 3d 61 bd 48 7b b5 bd bb d6 64 3d
       0.043165468 -0.054990117 -0.08861405 0.055868845
000170 ef 2d b6 3d 39 0a 89 3d 91 b4 b1 3d 5d ba ca bc
       0.0889548 0.06691403 0.086770184 -0.024747068
000180 fb 4f 02 3e b8 40 d6 3b 24 04 dd 3d b6 58 de 3d
       0.12725823 0.006538477 0.107918054 0.10856764
000190 44 9d d1 3c 68 ce 5b 3d de 5c d7 3d 7e df d2 3c
       0.025587685 0.05366364 0.1051576 0.025741335
0001a0 6d 21 cf 3b 84 7c 04 bd 6f 3c ec 3d 8f fe 90 3d
       0.0063211233 -0.03234531 0.11534964 0.07079803
0001b0 69 5c c8 3d b3 58 8d 3d 66 b5 e9 3c 92 4c 9f bc
       0.09783251 0.06901684 0.02852888 -0.019445691
0001c0 1f 94 2a 3d 10 67 8a bd 8c d1 7f bd e1 a7 a5 3d
       0.041645166 -0.06757939 -0.0624557 0.08088661
0001d0 19 97 16 3c db c3 ef 3d 88 7b 51 3d 6a 57 18 3d
       0.009191298 0.11707278 0.0511432 0.03719274
0001e0 92 02 2a 3d 48 47 89 bd 92 5d 40 3c ea e5 03 bb
       0.041506357 -0.06703049 0.011741059 -0.0020126053
0001f0 4d bb a7 3a 0a 21 85 3d f0 63 0a bd 5a 39 63 3c
       0.0012796909 0.06500442 -0.033786714 0.013868654

fc2.weight f4 [1, 128]
000000 f0 b7 97 bd c8 c7 ee bd 47 64 da 3d 71 f4 c0 3d
       -0.0740813 -0.11659199 0.10663658 0.094216235
000010 89 28 9d 3d bc 86 2c be 01 40 ff 3d 3b f4 fd bd
       0.07673747 -0.16848272 0.1246338 -0.12400099
000020 1a b5 57 3d 74 69 f5 bd d0 b8 e7 bd fe 3f d5 bd
       0.052662946 -0.11983004 -0.11314547 -0.10412596
000030 f8 af 1d be 1b e4 17 be 6f b1 12 be dd bc ec 3d
       -0.15399158 -0.14833109 -0.14325498 0.1155946
000040 f5 2e 6d 3d 19 42 11 be 15 b8 5a 3d ca 37 0f be
       0.05790611 -0.1418537 0.05339821 -0.13986126
000050 e9 62 fe 3d c5 14 f1 bd 61 46 1f 3e c6 db 12 be
       0.12421209 -0.117715396 0.15554191 -0.1434165
000060 17 f7 14 3e ef ab 9f bd f9 05 ed bd a9 6b d1 3d
       0.14547382 -0.077964656 -0.11573405 0.10225613
000070 ac a0 d2 3d 29 95 ef 3d e3 48 cb bd 42 51 a6 3d
       0.10284552 0.11698372 -0.099260114 0.081209674
000080 56 f6 d2 bd fa a5 a5 bd 4e b7 e4 bd 51 13 e9 3d
       -0.10300891 -0.08088298 -0.11167775 0.113806374
000090 9d 5d 03 3e 5f db 0a be 73 da 21 be ac 57 90 3d
       0.1282868 -0.13560246 -0.15805988 0.07047972
0000a0 f5 92 03 be b0 6f 30 3e 39 a0 00 be 3d 72 d9 3d
       -0.12849028 0.17230105 -0.1256112 0.10617492
0000b0 65 6f f3 3d 62 d0 be 3d 92 33 1e 3e 7e e0 30 3e
       0.11886481 0.093170896 0.1544936 0.17273137
0000c0 01 be f4 bd 12 cf 19 be f5 a3 c2 bd 95 ae 06 be
       -0.11950303 -0.15020397 -0.095039286 -0.13152535
0000d0 fb 90 04 be d6 4c 00 be 97 27 f1 3d 63 01 0c be
       -0.1294593 -0.1252931 0.11775129 -0.13672404
0000e0 6d 45 c2 bd e9 ae dd 3d 80 34 af 3d b6 84 eb bd
       -0.09485898 0.10824377 0.085549355 -0.11499922
0000f0 cb 6b d4 bd 8c b7 8f bd 29 1e 1d be df 16 cf 3d
       -0.103721224 -0.07017431 -0.15343536 0.10111784
000100 bc 84 03 3e f5 b5 a9 3d 72 46 0a 3e 5a 36 0d 3e
       0.12843603 0.08286659 0.13503435 0.13790265
000110 ce f4 13 be 19 c1 0c be ff 4a a3 bd ee a4 17 3e
       -0.14448854 -0.13745536 -0.07973289 0.1480901
000120 aa 9e 0a 3e e2 29 8e 3d e3 f6 ab bd 2c 37 31 3e
       0.13537088 0.06941582 -0.08396699 0.17306203
000130 62 81 1c be 0e 6d f4 bc 33 15 9d bd cf c9 08 be
       -0.1528373 -0.029837158 -0.07670059 -0.13358234
000140 60 fb 8c 3d f9 21 2a be 75 ff e8 bd 17 f6 83 3d
       0.068838835 -0.16614522 -0.113768496 0.06443422
000150 4a d3 a8 bd 12 0f 02 3e 03 00 91 bd e8 0f b3 bd
       -0.08243425 0.12701061 -0.0708008 -0.08743268
000160 6b 43 ca 3d f9 25 c7 3d 95 cd 20 3e ad fa 25 3e
       0.0987614 0.097240396 0.15703423 0.16208906
000170 35 83 0d 3e 19 d1 14 3e 03 4b 10 3e 8f 42 e1 3d
       0.13819583 0.1453289 0.14091115 0.10999023
000180 5f be 1d 3e 65 02 b3 bd 92 82 93 3d 89 7e d3 bd
       0.15404652 -0.08740691 0.07202639 -0.10326869
000190 f2 ba a7 3d 30 9d 25 be 51 be be bd bf 80 ea bd
       0.08189954 -0.16173244 -0.09313644 -0.114503376
0001a0 00 27 f8 3d 3c 3f ac bd c3 27 1c 3e ff 5f 00 3e
       0.12116814 -0.084104985 0.15249543 0.1253662
0001b0 76 af 89 3d e9 44 4a 3d 61 1e 34 3e 2b 14 e2 3d
       0.0672292 0.049382124 0.17589714 0.11039003
0001c0 0b 5f 02 be e1 84 07 3e fc 2e c4 3d ea 48 e8 3d
       -0.12731569 0.13234283 0.09579274 0.11342032
0001d0 a0 48 a5 3d 20 bb 13 be 6a cf fd 3d 29 45 a9 3c
       0.08070493 -0.14426851 0.12393077 0.020662861
0001e0 8f 42 c0 3d 6b 12 17 3e d3 9c ab bd 2e 32 37 3e
       0.09387695 0.1475312 -0.08379521 0.17890236
0001f0 fd 5d 34 3e 96 b5 ab bd d0 83 ac bd 8f e5 0e be
       0.17613979 -0.08384244 -0.08423579 -0.13954757
